
Random seeds have been fixed as 42


Random seeds have been fixed as 42


 ---------------------------------------- fold#0 starts. ---------------------------------------- 

Ranger optimizer loaded. 
Gradient Centralization usage = True
GC applied to both conv and fc layers
==========================================================================================
Layer (type:depth-idx)                   Output Shape              Param #
==========================================================================================
├─Conv2d: 1-1                            [-1, 40, 1, 97]           1,000
├─Mish: 1-2                              [-1, 40, 1, 97]           --
├─Conv2d: 1-3                            [-1, 40, 1, 94]           6,440
├─BatchNorm2d: 1-4                       [-1, 40, 1, 94]           80
├─MaxPool2d: 1-5                         [-1, 40, 1, 18]           --
├─Mish: 1-6                              [-1, 40, 1, 18]           --
├─SwapLayer: 1-7                         [-1, 1, 40, 18]           --
├─Conv2d: 1-8                            [-1, 50, 33, 7]           4,850
├─BatchNorm2d: 1-9                       [-1, 50, 33, 7]           100
├─MaxPool2d: 1-10                        [-1, 50, 11, 2]           --
├─Mish: 1-11                             [-1, 50, 11, 2]           --
├─Conv2d: 1-12                           [-1, 50, 9, 2]            7,550
├─BatchNorm2d: 1-13                      [-1, 50, 9, 2]            100
├─MaxPool2d: 1-14                        [-1, 50, 9, 1]            --
├─Mish: 1-15                             [-1, 50, 9, 1]            --
├─Sequential: 1-16                       [-1, 2]                   --
|    └─Linear: 2-1                       [-1, 1024]                461,824
|    └─Mish: 2-2                         [-1, 1024]                --
|    └─Dropout: 2-3                      [-1, 1024]                --
|    └─Linear: 2-4                       [-1, 256]                 262,400
|    └─Mish: 2-5                         [-1, 256]                 --
|    └─Dropout: 2-6                      [-1, 256]                 --
|    └─Linear: 2-7                       [-1, 2]                   514
├─Sequential: 1-17                       [-1, 3]                   --
|    └─Linear: 2-8                       [-1, 1024]                461,824
|    └─Mish: 2-9                         [-1, 1024]                --
|    └─Dropout: 2-10                     [-1, 1024]                --
|    └─Linear: 2-11                      [-1, 256]                 262,400
|    └─Mish: 2-12                        [-1, 256]                 --
|    └─Dropout: 2-13                     [-1, 256]                 --
|    └─Linear: 2-14                      [-1, 3]                   771
==========================================================================================
Total params: 1,469,853
Trainable params: 1,469,853
Non-trainable params: 0
Total mult-adds (M): 4.83
==========================================================================================
Input size (MB): 0.15
Forward/backward pass size (MB): 0.30
Params size (MB): 5.61
Estimated Total Size (MB): 6.05
==========================================================================================
…
